…
"timestamp":1653844095026,"user_tz":-480,"elapsed":534,"user":{"displayName":"benjamin yang","userId":"12485191019422951801"}}},"execution_count":37,"outputs":[]},{"cell_type":"code","source":["net_loaded"],"metadata":{"colab":{"base_uri":"https://localhost:8080/"},"id":"OB5aZFyhBE8t","executionInfo":{"status":"ok","timestamp":1653844099049,"user_tz":-480,"elapsed":407,"user":{"displayName":"benjamin yang","userId":"12485191019422951801"}},"outputId":"ff69c115-7616-4559-cb76-5a94a18ccd22"},"execution_count":38,"outputs":[{"output_type":"execute_result","data":{"text/plain":["Net(\n","  (input1): Linear(in_features=50176, out_features=4096, bias=True)\n","  (bn1): BatchNorm1d(4096, eps=1e-05, momentum=0.1, affine=True, track_running_stats=True)\n","  (linears): ModuleList(\n","    (0): Linear(in_features=4096, out_features=4096, bias=True)\n","    (1): BatchNorm1d(4096, eps=1e-05, momentum=0.1, affine=True, track_running_stats=True)\n","    (2): GELU()\n","    (3): Dropout(p=0.3, inplace=False)\n","    (4): Linear(in_features=4096, out_features=4096, bias=True)\n","    (5): BatchNorm1d(4096, eps=1e-05, momentum=0.1, affine=True, track_running_stats=True)\n","    (6): GELU()\n","    (7): Dropout(p=0.3, inplace=False)\n","    (8): Linear(in_features=4096, out_features=4096, bias=True)\n","    (9): BatchNorm1d(4096, eps=1e-05, momentum=0.1, affine=True, track_running_stats=True)\n","    (10): GELU()\n","    (11): Dropout(p=0.3, inplace=False)\n","    (12): Linear(in_features=4096, out_features=4096, bias=True)\n","    (13): BatchNorm1d(4096, eps=1e-05, momentum=0.1, affine=True, track_running_stats=True)\n","    (14): GELU()\n","    (15): Dropout(p=0.3, inplace=False)\n","  )\n","  (output_1): Linear(in_features=4096, out_features=3, bias=True)\n","  (output_2): Softmax(dim=1)\n",")"]},"metadata":{},"execution_count":38}]},{"cell_type":"markdown","source":["### internal test"],"metadata":{"id":"SLON6CZFc60g"}},{"cell_type":"code","source":["from sklearn.metrics import classification_report, confusion_matrix\n","import seaborn as sns\n","import matplotlib.pyplot as plt\n","\n","model.eval()\n",
…
