…
type":"code","source":["pred_layers = Net(8,1000,act_function=\"relu\")\n","pred_layers"],"metadata":{"colab":{"base_uri":"https://localhost:8080/"},"id":"yiOmpTq0iEIy","executionInfo":{"status":"ok","timestamp":1653167723968,"user_tz":-480,"elapsed":13,"user":{"displayName":"benjamin yang","userId":"12485191019422951801"}},"outputId":"429f0336-d5c4-49d7-88f9-50a5126b3ff4"},"execution_count":null,"outputs":[{"output_type":"stream","name":"stdout","text":["activation function <class 'torch.nn.modules.activation.ReLU'>\n"]},{"output_type":"execute_result","data":{"text/plain":["Net(\n","  (input): Linear(in_features=1024, out_features=1000, bias=True)\n","  (linears): ModuleList(\n","    (0): Linear(in_features=1000, out_features=1000, bias=True)\n","    (1): BatchNorm1d(1000, eps=1e-05, momentum=0.1, affine=True, track_running_stats=True)\n","    (2): ReLU()\n","    (3): Dropout(p=0.5, inplace=False)\n","    (4): Linear(in_features=1000, out_features=1000, bias=True)\n","    (5): BatchNorm1d(1000, eps=1e-05, momentum=0.1, affine=True, track_running_stats=True)\n","    (6): ReLU()\n","    (7): Dropout(p=0.5, inplace=False)\n","    (8): Linear(in_features=1000, out_features=1000, bias=True)\n","    (9): BatchNorm1d(1000, eps=1e-05, momentum=0.1, affine=True, track_running_stats=True)\n","    (10): ReLU()\n","    (11): Dropout(p=0.5, inplace=False)\n","    (12): Linear(in_features=1000, out_features=1000, bias=True)\n","    (13): BatchNorm1d(1000, eps=1e-05, momentum=0.1, affine=True, track_running_stats=True)\n","    (14): ReLU()\n","    (15): Dropout(p=0.5, inplace=False)\n","    (16): Linear(in_features=1000, out_features=1000, bias=True)\n","    (17): BatchNorm1d(1000, eps=1e-05, momentum=0.1, affine=True, track_running_stats=True)\n","    (18): ReLU()\n","    (19): Dropout(p=0.5, inplace=False)\n","    (20): Linear(in_features=1000, out_features=1000, bias=True)\n","    (21): BatchNorm1d(1000, eps=1e-05, momentum=0.1, affine=True, track_running_stats=True)\n","    (22): ReLU()\n","    (23): Dropout(p=0.5, inplace=False)\n","    (24): Linear(in_features=1000, out_features=1000, bias=True)\n","    (25): BatchNorm1d(1000, eps=1e-05, momentum=0.1, affine=True, track_running_stats=True)\n","    (26): ReLU()\n","    (27): Dropout(p=0.5, inplace=False)\n","    (28): Linear(in_features=1000, out_features=1000, bias=True)\n","    (29): BatchNorm1d(1000, eps=1e-05, momentum=0.1, affine=True, track_running_stats=True)\n","    (30): ReLU()\n","    (31): Dropout(p=0.5, inplace=False)\n","  )\n","  (output_1): Linear(in_features=1000, out_features=3, bias=True)\n","  (output_2): Softmax(dim=1)\n",")"]},"metadata":{},"execution_count":44}]},{"cell_type":"code","source":["# 放到GPU\n","model = pred_layers.to(device)\n","\n","# 定义损失函数，暂定交叉墒\n","loss_fc = nn.CrossEntropyLoss()\n","\n","\n","# 先随便设置一下\n","optimizer = optim.SGD(model.parameters(), lr=0.7, momentum=0.9)\n","\n","# 学习率调整器，越来越小保证收敛\n","exp_lr_scheduler =
…
code","source":["pred_layers_res = Net(8,512,act_function=\"relu\")\n","pred_layers_res"],"metadata":{"colab":{"base_uri":"https://localhost:8080/"},"id":"JQ5l9UeqmFfH","executionInfo":{"status":"ok","timestamp":1653167421351,"user_tz":-480,"elapsed":27,"user":{"displayName":"benjamin yang","userId":"12485191019422951801"}},"outputId":"6a03b1f6-57b2-4ca8-b710-52ebc22b3ce2"},"execution_count":null,"outputs":[{"output_type":"stream","name":"stdout","text":["activation function <class 'torch.nn.modules.activation.ReLU'>\n"]},{"output_type":"execute_result","data":{"text/plain":["Net(\n","  (input): Linear(in_features=512, out_features=512, bias=True)\n","  (linears): ModuleList(\n","    (0): Linear(in_features=512, out_features=512, bias=True)\n","    (1): BatchNorm1d(512, eps=1e-05, momentum=0.1, affine=True, track_running_stats=True)\n","    (2): ReLU()\n","    (3): Dropout(p=0.5, inplace=False)\n","    (4): Linear(in_features=512, out_features=512, bias=True)\n","    (5): BatchNorm1d(512, eps=1e-05, momentum=0.1, affine=True, track_running_stats=True)\n","    (6): ReLU()\n","    (7): Dropout(p=0.5, inplace=False)\n","    (8): Linear(in_features=512, out_features=512, bias=True)\n","    (9): BatchNorm1d(512, eps=1e-05, momentum=0.1, affine=True, track_running_stats=True)\n","    (10): ReLU()\n","    (11): Dropout(p=0.5, inplace=False)\n","    (12): Linear(in_features=512, out_features=512, bias=True)\n","    (13): BatchNorm1d(512, eps=1e-05, momentum=0.1, affine=True, track_running_stats=True)\n","    (14): ReLU()\n","    (15): Dropout(p=0.5, inplace=False)\n","    (16): Linear(in_features=512, out_features=512, bias=True)\n","    (17): BatchNorm1d(512, eps=1e-05, momentum=0.1, affine=True, track_running_stats=True)\n","    (18): ReLU()\n","    (19): Dropout(p=0.5, inplace=False)\n","    (20): Linear(in_features=512, out_features=512, bias=True)\n","    (21): BatchNorm1d(512, eps=1e-05, momentum=0.1, affine=True, track_running_stats=True)\n","    (22): ReLU()\n","    (23): Dropout(p=0.5, inplace=False)\n","    (24): Linear(in_features=512, out_features=512, bias=True)\n","    (25): BatchNorm1d(512, eps=1e-05, momentum=0.1, affine=True, track_running_stats=True)\n","    (26): ReLU()\n","    (27): Dropout(p=0.5, inplace=False)\n","    (28): Linear(in_features=512, out_features=512, bias=True)\n","    (29): BatchNorm1d(512, eps=1e-05, momentum=0.1, affine=True, track_running_stats=True)\n","    (30): ReLU()\n","    (31): Dropout(p=0.5, inplace=False)\n","  )\n","  (output_1): Linear(in_features=512, out_features=3, bias=True)\n","  (output_2): Softmax(dim=1)\n",")"]},"metadata":{},"execution_count":29}]},{"cell_type":"code","source":["# 放到GPU\n","model = pred_layers_res.to(device)\n","\n","# 定义损失函数，暂定交叉墒\n","loss_fc = nn.CrossEntropyLoss()\n","\n","\n","# 先随便设置一下\n","optimizer = optim.SGD(model.parameters(), lr=0.7, momentum=0.9)\n","\n","# 学习率调整器，越来越小保证收敛\n","exp_lr_schedule
…
